DM_Homework_4/best_model_gcn.pth (torch, 6612 bytes, 7 tensors)

conv1.bias f4 [128]
0.007181781 0.0032111178 0.05803648 0.016228005 0.00059126737 0.010509131 0.05760558 0.010957894
0.009126637 -0.00025356468 -0.057842582 0.007956715 0.056155324 -0.05800621 -0.05793277 -0.059581354
0.0040963655 0.075697675 0.05589764 0.05777615 0.057090502 0.008383505 -0.056918435 0.0064771855
-0.010683876 0.057075426 -0.057041895 0.0053696213 0.017162332 0.056744818 -0.060320456 0.0071885115
0.055823825 -0.008520537 0.011202629 0.0020189458 -0.053873077 -0.057071455 0.0063930782 0.021730369
-0.058615644 -0.002978627 0.0059986073 -0.059466507 0.05691887 0.005283947 0.00054230564 0.119809225
0.056360796 -0.0074745566 0.0058052675 0.056986775 -0.05876062 -1.9622734e-05 0.0007135817 -0.022606602
0.056690767 0.092999995 0.05747683 0.0051610805 0.006286092 0.11963047 0.0009549167 -0.05851314
-0.0015186255 0.013541151 0.057663932 0.0019882624 0.057809696 0.00022983016 0.0006736327 -0.05755583
0.05677572 0.007494267 -0.060437456 -0.05833879 -0.059150428 0.13861085 0.0073183677 0.007541076
0.056309287 0.037311267 -0.057932347 -0.05929633 -0.058029555 -0.060130775 -0.058345236 -0.058197588
0.055326346 -0.004442412 -0.05801827 0.007573169 0.057668496 0.05692849 0.00464461 -0.0012415525
0.010118447 -0.0034395575 -0.057794582 -0.06162055 0.058054846 -0.057773802 0.050283186 0.01069231
-0.058490094 0.05686848 0.0025205805 0.0075353147 0.056979544 0.028781869 -0.015343053 0.05695931
0.056073003 -0.0008449891 0.056832828 0.01995811 0.055278614 -0.003708975 -0.05793165 -0.058453534
0.0022658915 -0.004177882 -0.00951526 0.057472594 -0.058991585 0.09911618 0.0050366153 0.020169858
00000000: 2555 eb3b 9e71 523b a9b7 6d3d 98f0 843c
00000010: 48ff 1a3a 7d2e 2c3c d4f3 6b3d bd88 333c
00000020: e487 153c e0f0 84b9 58ec 6cbd e25c 023c
00000030: 2003 663d eb97 6dbd ea4a 6dbd 940b 74bd
00000040: ce3a 863b 6207 9b3d ecf4 643d afa6 6c3d
00000050: bbd7 693d f85a 093c 4e23 69bd 923e d43b
00000060: 6d0b 2fbc ecc7 693d c3a4 69bd a6f3 af3b
00000070: 0598 8c3c 416d 683d 9512 77bd 9b8d eb3b
00000080: 86a7 643d b999 0bbc 3b8b 373c 4a50 043b
00000090: 04aa 5cbd c2c3 69bd 077d d13b e303 b23c
000000a0: f516 70bd 1235 43bb f78f c43b 2793 73bd
000000b0: c323 693d f624 ad3b 8429 0e3a 8a5e f53d
000000c0: 94da 663d 20ed f4bb 1d3a be3b f76a 693d
000000d0: faae 70bd 809b a4b7 a80f 3b3a 7b31 b9bc
000000e0: 9434 683d c876 be3d d36c 6b3d 481e a93b
000000f0: 90fb cd3b d200 f53d 6053 7a3a 79ab 6fbd
00000100: 9e0c c7ba b4db 5d3c 0431 6c3d 824d 023b
00000110: dcc9 6c3d 90fe 7039 ba96 303a a9bf 6bbd
00000120: a88d 683d 7892 f53b 448d 77bd a8f4 6ebd
00000130: b847 72bd 01f0 0d3e ebce ef3b 211b f73b
00000140: 91a4 663d b3d3 183d 784a 6dbd b5e0 72bd
00000150: 66b0 6dbd b04b 76bd 6afb 6ebd 9860 6ebd
00000160: e19d 623d a791 91bb 91a4 6dbd 5928 f83b
00000170: cd35 6c3d d92d 693d d031 983b 97bb a2ba
00000180: d8c7 253c 336a 61bb 03ba 6cbd d465 7cbd
00000190: ebca 6d3d 39a4 6cbd bef5 4d3d cc2e 2f3c
000001a0: 4f93 6fbd ecee 683d 5330 253b cdea f63b
000001b0: 6263 693d f4c7 eb3c 6e61 7bbc 2a4e 693d
000001c0: ceac 653d 4282 5dba 8ac9 683d 317f a33c
000001d0: d46b 623d 4612 73bb bd49 6dbd f96c 6fbd
000001e0: 5a7f 143b 9de6 88bb e5e5 1bbc 6268 6b3d
000001f0: 29a1 71bd 6cfd ca3d 310a a53b 423b a53c

conv1.lin.weight f4 [128, 1]
0.034941223 -0.049653754 0.1257102 0.059115373 -0.04271277 -0.06301441 0.25828427 0.064717054
-0.06431897 -0.03929843 0.071183175 -0.06339879 0.13479725 0.048571736 -0.058696423 0.019713832
-0.04478023 0.16446681 0.22946115 0.14395735 0.0629818 -0.06458937 0.09913916 -0.047413453
0.01028121 0.18621387 -0.054856926 -0.042896036 0.045485076 0.19201078 0.0523851 -0.04520039
0.1291679 0.011231538 0.066627115 -0.043107398 -0.046897896 0.039752577 -0.04770192 0.035244603
-0.03939549 -0.04293655 -0.04576201 0.029772134 0.21691361 -0.040690795 -0.042037707 0.21546493
0.21199302 0.034633543 0.03228606 0.1643329 0.10609856 -0.046447325 -0.045144007 -0.027419629
0.22171776 0.26045388 0.06190976 0.09021047 -0.043912422 0.2155149 -0.035013232 0.04429006
-0.046217505 0.05266909 0.14782026 -0.040507253 0.11611598 -0.045610704 -0.04732995 0.12680627
0.18256731 -0.038932692 0.01346886 -0.015861707 0.06730121 0.25005394 -0.0426118 -0.045905236
0.115956776 0.10959765 0.06323329 0.12745675 0.046214424 0.10787983 0.106078565 0.08179109
0.18646915 -0.048010144 0.023739634 0.17221786 0.1632131 0.10005966 0.082569465 -0.04669816
-0.06476543 -0.04531943 0.0597785 0.14719738 0.15011461 0.051752258 0.092142254 0.042523358
-0.052630544 0.11586142 -0.03935197 -0.039947875 0.19136384 0.10466621 -0.052801885 0.16891347
0.066272534 -0.043836474 0.20620477 0.1040376 0.0868828 -0.045824103 0.10009172 -0.025884353
-0.049385738 -0.043947503 0.0109284995 0.16052818 -0.0439768 0.20961656 -0.045695 0.23688902
00000000: 871e 0f3d bc61 4bbd 2dba 003e f622 723d
00000010: 96f3 2ebd b30d 81bd d63d 843e 608a 843d
00000020: aab9 83bd 64f7 20bd 7cc8 913d 3ad7 81bd
00000030: 4a08 0a3e 28f3 463d a96b 70bd e77e a13c
00000040: 796b 37bd fd69 283e ddf7 6a3e 8e69 133e
00000050: 9afc 803d 6e47 84bd 7909 cb3d 9c34 42bd
00000060: 8572 283c d9ae 3e3e a8b1 60bd c1b3 2fbd
00000070: 8f4e 3a3d 799e 443e c291 563d 0b24 39bd
00000080: 9744 043e 7c04 383c cc73 883d 6291 30bd
00000090: 0218 40bd 99d3 223d 1763 43bd a55c 103d
000000a0: 2a5d 21bd 3cde 2fbd f270 3bbd b1e4 f33c
000000b0: 9a1e 5e3e 64ab 26bd bb2f 2cbd d7a2 5c3e
000000c0: b314 593e e7db 0d3d 633e 043d e246 283e
000000d0: 344a d93d 8d3f 3ebd ece8 38bd 219f e0bc
000000e0: fb09 633e 365a 853e 1795 7d3d 44c0 b83d
000000f0: 83dd 33bd f0af 5c3e 096a 0fbd 7e69 353d
00000100: 914e 3dbd 8bbb 573d 325e 173e efea 25bd
00000110: 37ce ed3d 4ad2 3abd 0ddd 41bd 81d9 013e
00000120: edf2 3a3e e377 1fbd 7eac 5c3c 69f0 81bc
00000130: 37d5 893d 1207 803e b689 2ebd 2107 3cbd
00000140: bf7a ed3d bc74 e03d 7580 813d 0684 023e
00000150: 564b 3d3d 1af0 dc3d b83f d93d 1682 a73d
00000160: c5f1 3e3e 49a6 44bd 9f79 c23c e159 303e
00000170: 5621 273e 14ec cc3d 2e1a a93d 9246 3fbd
00000180: bda3 84bd dea0 39bd 4dda 743d e9ba 163e
00000190: a5b7 193e 2dfa 533d 14b5 bc3d f92c 2e3d
000001a0: 2093 57bd c148 ed3d 882f 21bd 62a0 23bd
000001b0: e2f4 433e 3d5b d63d ca46 58bd a7f7 2c3e
000001c0: e5b9 873d e08d 33bd 5827 533e aa11 d53d
000001d0: 9cef b13d 0eb2 3bbd e3fc cc3d 6c0b d4bc
000001e0: b348 4abd 4c02 34bd 730d 333c 8061 243e
000001f0: 0421 34bd b9a5 563e ae2a 3bbd 0993 723e

conv2.bias f4 [2]
-0.057158824 -0.05796437
00000000: 5f1f 6abd 0c6c 6dbd

conv2.lin.weight f4 [2, 128]
0.047948398 0.049712125 0.15046895 0.06522331 0.036730595 -0.0029029665 0.08064808 0.08687784
-0.0324571 0.03255714 0.037788365 -0.030349968 -0.19470018 -0.00954901 0.11097024 -0.23321952
-0.027127346 0.19538233 0.1119153 0.08151016 -0.09482197 0.0072283773 0.015749818 0.030897235
0.017076015 0.04390187 -0.033180125 -0.02081937 0.06350933 -0.004976685 -0.094318524 -0.04107284
0.107728906 0.016143981 0.08867636 0.025671672 -0.06496143 0.040281817 -0.05820016 -0.007286295
-0.10014573 -0.039144147 -0.031202044 -0.14776275 -0.111014195 0.026757937 0.043462582 0.26160616
-0.26281574 0.044404194 0.043925222 -0.25383312 -0.16309957 0.007731476 -0.023291692 -0.0069024162
-0.24285652 0.10905319 0.03341494 0.033203 0.02809132 0.25653023 -0.027648931 -0.09638898
0.045784365 0.06827642 0.11668719 0.039252553 0.11178693 0.04357338 0.013398109 0.08863966
-0.12920398 -0.038857028 -0.24953893 -0.009440132 -0.22332416 0.25430748 0.019235348 -0.0033564696
0.02272042 0.13655166 0.017110415 -0.22185604 -0.018284192 -0.2569871 -0.082984224 -0.05650995
-0.18251745 0.027165037 -0.01389886 0.055208936 0.06589877 -0.20511252 0.05409276 0.040451292
0.065397434 0.04018634 -0.010902438 -0.19616751 0.14842734 0.058498446 -0.19147682 0.051446225
0.14627004 0.0039635845 0.04239501 0.031089611 -0.24716273 -0.15761454 0.13947457 -0.13228907
-0.066908516 0.05140906 -0.078348294 -0.170019 -0.093682386 -0.14122397 0.0032177547 -0.16177769
0.042849656 0.015437121 0.012329939 0.036838543 0.12478748 0.2075007 0.023653354 0.08333475
0.005890507 0.03559394 -0.20763874 0.019624198 -0.01828125 0.03980007 -0.19547474 0.08085194
0.056036502 -0.050631184 0.11711574 0.04594813 -0.14315625 0.13569294 -0.021971412 0.07344037
0.043428726 0.18029234 0.22448435 -0.2488536 -0.22133477 -0.033452954 -0.043759964 -0.04709354
0.00419722 -0.15691929 -0.02667031 0.044778083 -0.027827296 -0.15032788 -0.033810012 0.048621822
-0.11344447 0.009136779 0.09914889 0.055250935 -0.043392297 -0.029103367 0.049501546 0.11205445
0.10042159 0.0545499 0.056040894 0.01649247 -0.19536802 -0.05486228 -0.061366785 0.24710548
-0.16683958 0.056240264 0.0012344688 -0.2545568 0.096315145 0.043044463 0.043265857 0.009154404
-0.20026574 0.30549592 -0.24092942 0.10844693 -0.038174152 0.20531422 0.052054565 0.042667996
-0.032882556 -0.019984465 -0.16645296 -0.052694645 -0.2098222 -0.04414083 0.0501507 0.06334109
-0.18359597 0.031963352 0.049679235 0.12791094 0.10246074 0.27478617 -0.024136856 0.025649747
-0.12716699 0.13334668 0.14374983 0.08719024 0.12526359 0.06478272 0.06982064 0.060012925
-0.106881864 0.055193808 0.1368071 0.12814663 -0.2298339 -0.22714238 0.12369768 0.056975026
-0.095383435 -0.035672076 -0.002953011 0.006777634 -0.24585724 0.113477096 -0.05030733 0.00322106
0.12909065 -0.15604183 -0.03641884 -0.017169345 -0.25060028 -0.03689656 -0.054812495 -0.20793693
-0.12534367 -0.038457092 -0.17606609 -0.032512765 -0.10545826 0.0037398452 0.09350909 0.05083632
0.026379215 0.047065195 0.03994376 -0.20949173 0.10790442 0.28043306 -0.04607986 0.16629326
00000000: 8a65 443d f19e 4b3d 8814 1a3e cc93 853d
00000010: d272 163d b23f 3ebb d22a a53d 02ed b13d
00000020: bcf1 04bd a35a 053d f9c7 1a3d 7fa0 f8bc
00000030: 7c5f 47be 7373 1cbc 5d44 e33d 19d1 6ebe
00000040: 2b3a debc 4e12 483e d933 e53d ccee a63d
00000050: 0532 c2bd 06dc ec3b c305 813c 331c fd3c
00000060: 00e3 8b3c 72d2 333d e2e7 07bd 628d aabc
00000070: 2e11 823d 7613 a3bb 122a c1bd ff3b 28bd
00000080: f9a0 dc3d 6240 843c f49b b53d 664d d23c
00000090: 800a 85bd 8cfe 243d 4a63 6ebd dfc1 eebb
000000a0: 3419 cdbd 9d55 20bd 6e9b ffbc 1e4f 17be
000000b0: 695b e3bd 7633 db3c d205 323d 3ef1 853e
000000c0: c98f 86be 2ce1 353d efea 333d 6af6 81be
000000d0: 9303 27be 5258 fd3b 38ce bebc aa2d e2bb
000000e0: 61af 78be 4757 df3d 1bde 083d deff 073d
000000f0: c51f e63c ee57 833e 0380 e2bc 9667 c5bd
00000100: 6388 3b3d 82d4 8b3d b2f9 ee3d 49c7 203d
00000110: 8cf0 e43d 007a 323d be83 5b3c b688 b53d
00000120: 0c4e 04be 8c28 1fbd 2287 7fbe c9aa 1abc
00000130: 17af 64be 9734 823e 7393 9d3c 37f8 5bbb
00000140: 2d20 ba3c 33d4 0b3e 242b 8c3c 3b2e 63be
00000150: bbc8 95bc d093 83be a2f3 a9bd fa76 67bd
00000160: dbe5 3abe 3689 de3c 0bb8 63bc c422 623d
00000170: eff5 863d 0409 52be 5f90 5d3d 41b0 253d
00000180: 17ef 853d 6f9a 243d 24a0 32bc 23e0 48be
00000190: 56fd 173e 119c 6f3d 8012 44be 47b9 523d
000001a0: d0c7 153e f5e0 813b 64a6 2d3d a4af fe3c
000001b0: 3a18 7dbe b565 21be 6cd2 0e3e c976 07be
000001c0: 5507 89bd 4e92 523d 1275 a0bd 7619 2ebe
000001d0: 8ddc bfbd 049d 10be f7e0 523b 0da9 25be
000001e0: 1f83 2f3d faeb 7c3c 8303 4a3c 03e4 163d
000001f0: 9490 ff3d 107b 543e aec4 c13c 69ab aa3d
00000200: 2705 c13b f4ca 113d 409f 54be edc2 a03c
00000210: 8fc2 95bc 6605 233d 882a 48be b495 a53d
00000220: 8886 653d a562 4fbd 61da ef3d 1b34 3c3d
00000230: 8d97 12be 17f3 0a3e 64fd b3bc e867 963d
00000240: 52e2 313d 8e9e 383e 3adf 653e 7ad3 7ebe
00000250: 95a5 62be f705 09bd a63d 33bd 28e5 40bd
00000260: d588 893b 73af 20be b27b dabc 3969 373d
00000270: 12f6 e3bc 8def 19be 5e7c 0abd ad27 473d
00000280: 9355 e8bd 6eb2 153c 930e cb3d ce4e 623d
00000290: 1fbc 31bd 2f6a eebc 22c2 4a3d ce7c e53d
000002a0: d6a9 cd3d b76f 5f3d 238b 653d 371b 873c
000002b0: 8e0e 48be 45b7 60bd bd5b 7bbd 3809 7d3e
000002c0: ffd7 2abe 315c 663d e6cd a13a 4555 82be
000002d0: e040 c53d 644f 303d 8a37 313d 5afc 153c
000002e0: 7612 4dbe f669 9c3e 34b6 76be 6d19 de3d
000002f0: 805c 1cbd e43d 523e 2b37 553d a3c4 2e3d
00000300: dcaf 06bd 76b6 a3bc a572 2abe 57d6 57bd
00000310: a1db 56be 04cd 34bd d26a 4d3d f9b8 813d
00000320: 9500 3cbe 01ec 023d 747c 4b3d 16fb 023e
00000330: f0d6 d13d c6b0 8c3e a8ba c5bc 6b1f d23c
00000340: 1038 02be 088c 083e 2833 133e cc90 b23d
00000350: 1945 003e cdac 843d 20fe 8e3d 1dd0 753d
00000360: e1e4 dabd e712 623d 2917 0c3e df38 033e
00000370: 9459 6bbe 0398 68be 3655 fd3d a55e 693d
00000380: 6458 c3bd e21c 12bd 4e87 41bb ea16 de3b
00000390: 00c2 7bbe ae66 e83d 0f0f 4ebd 6b18 533b
000003a0: 5730 043e 6ec9 1fbe ec2b 15bd baa6 8cbc
000003b0: ae4e 80be d920 17bd 1183 60bd 6bed 54be
000003c0: 175a 00be 2f85 1dbd ab4a 34be 1b2c 05bd
000003d0: 80fa d7bd 3118 753b b281 bf3d bf39 503d
000003e0: 3919 d83c 6fc7 403d 119c 233d 0085 56be
000003f0: fefc dc3d ec94 8f3e 3cbe 3cbd c848 2a3e

classifier1.weight f4 [32, 7]
-0.10619638 -0.12178992 0.09604638 -0.0035373028 0.1488959 -0.008928544 0.022513771 -0.3671415
-0.009067024 0.14411333 -0.25911874 -0.18995596 -0.35735565 -0.2685613 -0.0970605 -0.3450337
0.36437458 -0.007995432 0.27164823 -0.041713562 0.18369813 0.43028665 -0.32032585 0.060815904
0.24824211 -0.34597397 0.015041156 -0.011580789 0.013433198 0.08513893 0.064303115 -0.047032643
0.0042906455 0.26084453 -0.09279311 0.27207974 0.5436115 0.25287342 0.05593397 -0.19554903
-0.2906079 0.094303794 -0.010990951 0.0060846386 -0.0074093137 -0.030476414 0.044512603 -0.005963294
0.012845067 0.010770367 -0.28222016 0.2506987 -0.147302 0.045416303 -0.04079102 -0.12696859
-0.26918224 0.32058474 0.31269413 -0.22491899 0.04787963 0.10271541 -0.01651058 -0.2729393
0.07574548 -0.06053804 -0.29007974 -0.024492119 0.26877508 0.30165088 -0.088095374 -0.036204237
0.008406546 0.2670986 -0.19969063 -0.13965635 -0.14535409 -0.10922906 0.09960432 -0.0013457481
-0.03869775 -0.0050226497 0.10314194 0.12579049 0.23022623 -0.0333179 0.122372866 0.00930736
-0.107384615 -0.07939853 -0.29223838 0.19689253 0.23484647 -0.2459235 0.0324397 -0.0027899544
0.14535934 0.21359618 -0.23212416 0.02991005 0.16015203 -0.43930578 -0.040928688 0.11790833
0.15410878 0.1259841 0.36282435 -0.03589374 0.06933672 -0.045969803 0.25826943 -0.051607955
0.11817521 0.049955487 -0.25737765 0.16395216 -0.08930655 0.13805614 -0.0016629661 -0.2591565
-0.31928352 -0.31796378 0.04100577 -0.2538349 -0.2598065 -0.03915827 0.011689564 0.16338179
0.057377193 -0.35938266 0.016342228 0.21371219 0.20008537 -0.24647765 -0.39289033 0.15456846
0.1115992 0.2021893 0.31895277 -0.06655693 -0.25473687 0.1980319 -0.2255013 0.2619446
0.024417315 0.42673177 0.12831007 -0.29323453 0.18699765 -0.24068537 -0.022567336 -0.13718846
0.28057474 -0.19246733 0.051047754 0.045384493 -0.09451501 -0.0398829 0.006369398 0.077842265
0.02802306 -0.1061903 -0.10176382 -0.10982314 -0.23863007 0.07919155 0.04740904 0.18232092
-0.14559454 -0.11271281 -0.16576977 0.26221737 -0.32823402 0.19760247 0.22738904 0.29336843
-0.047319874 -0.112036474 0.40807945 0.15027823 -0.39661404 -0.2882601 0.27092823 0.19975212
-0.16395655 0.009618031 0.21706721 -0.20638318 0.2841729 0.07593866 0.29305747 0.015189976
-0.12769045 0.028349722 0.19925348 0.0012927693 0.38214728 -0.012384497 -0.22663991 0.0020243775
0.009453678 -0.11212457 -0.3210514 0.013724087 -0.29058775 0.23902445 -0.28544006 0.023720661
0.35348415 -0.0013862415 0.20005879 -0.03237533 0.34114143 0.10192098 0.13208842 -0.39482078
0.32088357 0.01535852 -0.22139023 0.22737756 -0.084970504 -0.047409628 0.05408593 0.092977576
00000000: 7d7d d9bd fe6c f9bd f7b3 c43d 18d2 67bb
00000010: 2b78 183e 0749 12bc cd6e b83c f8f9 bbbe
00000020: db8d 14bc 7292 133e 36ab 84be d183 42be
00000030: 52f7 b6be de80 89be a8c7 c6bd 42a8 b0be
00000040: 4e8f ba3e 46ff 02bc 7a15 8b3e d7db 2abd
00000050: 5d1b 3c3e 884e dc3e c001 a4be 191a 793d
00000060: 2e33 7e3e 8023 b1be 2e6f 763c 5abd 3dbc
00000070: eb16 5c3c 525d ae3d 5ab1 833d 4da5 40bd
00000080: 8b98 8c3b 6a8d 853e 500a bebd 094e 8b3e
00000090: 202a 0b3f a078 813e 051b 653d 013e 48be
000000a0: 8fca 94be 5922 c13d 6413 34bc a661 c73b
000000b0: d4c9 f2bb aca9 f9bc d952 363d bc67 c3bb
000000c0: 1e74 523c 3276 303c 297f 90be 945b 803e
000000d0: 56d6 16be 7206 3a3d 7c14 27bd 0e04 02be
000000e0: 41d2 89be af23 a43e 7219 a03e 2a51 66be
000000f0: 6e1d 443d 755c d23d 3241 87bc b3be 8bbe
00000100: 7220 9b3d bcf6 77bd 5585 94be b2a3 c8bc
00000110: e39c 893e fc71 9a3e 596b b4bd e54a 14bd
00000120: 9cbb 093c 26c1 883e b37b 4cbe 1302 0fbe
00000130: b4d7 14be 7cb3 dfbd 5afd cb3d d063 b0ba
00000140: 8881 1ebd 0a95 a4bb 153c d33d 39cf 003e
00000150: 6dc0 6b3e 5a78 08bd a09e fa3d e67d 183c
00000160: 77ec dbbd b29b a2bd 45a0 95be 329e 493e
00000170: 987b 703e 5fd3 7bbe 7edf 043d abd7 36bb
00000180: 14d9 143e f5b8 5a3e f5b1 6dbe ec05 f53c
00000190: e5fe 233e b0ec e0be d7a4 27bd ec79 f13d
000001a0: b1ce 1d3e fa01 013e 1dc4 b93e 5005 13bd
000001b0: 6900 8e3d d54a 3cbd e43b 843e dd62 53bd
000001c0: d805 f23d 209e 4c3d 01c7 83be 13e3 273e
000001d0: 5ae6 b6bd 975e 0d3e e2f7 d9ba 29b0 84be
000001e0: 2179 a3be 26cc a2be abf5 273d a6f6 81be
000001f0: 5c05 85be 6c64 20bd 9685 3f3c 8e4d 273e
00000200: 5904 6b3d 0101 b8be 23e0 853c 5ed7 5a3e
00000210: 2ee3 4c3e a364 7cbe ec28 c9be 3247 1e3e
00000220: 1f8e e43d b60a 4f3e c74d a33e 004f 88bd
00000230: df6c 82be e0c8 4a3e d0e9 66be 9a1d 863e
00000240: d206 c83c 967c da3e b763 033e d622 96be
00000250: 507c 3f3e 3a76 76be 22df b8bc 227b 0cbe
00000260: 7ea7 8f3e 2816 45be 7317 513d 17e5 393d
00000270: 1691 c1bd 405c 23bd 62b6 d03b c46b 9f3d
00000280: 9e90 e53c 4d7a d9bd 8d69 d0bd f4ea e0bd
00000290: 715b 74be 2e2f a23d fb2f 423d 56b2 3a3e
000002a0: bc16 15be f9d5 e6bd 8dbf 29be 5b41 863e
000002b0: 4a0e a8be 4d58 4a3e acd8 683e 6334 963e
000002c0: 7cd2 41bd 6173 e5bd caef d03e 89e2 193e
000002d0: ff10 cbbe d496 93be 1bb7 8a3e d28b 4c3e
000002e0: 3ae4 27be f294 1d3c de46 5e3e 1d56 53be
000002f0: 1c7f 913e ba85 9b3d a10b 963e 61df 783c
00000300: 49c1 02be ad3d e83c 1b09 4c3e 2472 a93a
00000310: cfa8 c33e 58e8 4abc 4b14 68be 6bab 043b
00000320: 99e3 1a3c 91a1 e5bd d960 a4be feda 603c
00000330: ebc7 94be d3c2 743e 3325 92be d551 c23c
00000340: e0fb b43e 8cb2 b5ba 36dc 4c3e fe9b 04bd
00000350: 17aa ae3e f2bb d03d 3042 073e f325 cabe
00000360: da4a a43e 4da2 7b3c 1fb4 62be aad5 683e
00000370: 0405 aebd 9930 42bd 3589 5d3d 076b be3d

classifier1.bias f4 [32]
0.1664774 0.17183788 0.24625672 -0.12626806 -0.036208 0.03260543 0.052045956 0.0946564
-0.043049805 -0.0013486412 -0.00022913632 -0.02523143 0.01658473 -0.025987722 -0.009181059 -0.2647919
-0.14880206 0.05347227 0.0018782514 -0.25739357 0.117222846 -0.11548928 -0.01203638 0.19096147
-0.3681808 -0.17043652 -0.22810265 0.020188557 0.21474668 -0.015404483 0.13475297 0.28939956
00000000: 0d79 2a3e 45f6 2f3e b92a 7c3e 6a4c 01be
00000010: d74e 14bd 458d 053d 242e 553d 37db c13d
00000020: fe54 30bd e4c4 b0ba 5044 70b9 25b2 cebc
00000030: b3dc 873c 34e4 d4bc 276c 16bc ce92 87be
00000040: 915f 18be bd05 5b3d a92f f63a 17c9 83be
00000050: 8812 f03d a585 ecbd 3d34 45bc 678b 433e
00000060: 3282 bcbe e986 2ebe be93 69be 7962 a53c
00000070: 8ee6 5b3e 1663 7cbc affc 093e 2e2c 943e

classifier2.weight f4 [1, 32]
-0.095511906 -0.120938405 -0.21902205 0.018526768 0.025966285 -0.058212545 0.040200487 0.11963408
-0.20705344 -0.17195302 0.21489051 -0.079879336 0.09382388 -0.05085776 0.023433032 -0.054708216
0.08563909 -0.053429376 0.05535306 0.045424253 0.030066425 0.07798247 0.014847447 0.10466768
-0.01575119 -0.20561883 0.09733733 -0.0027394712 0.018863969 -0.0954242 -0.13028368 0.09337999
00000000: bf9b c3bd 8eae f7bd 5147 60be 73c5 973c
00000010: 3fb7 d43c 4770 6ebd 44a9 243d b602 f53d
00000020: d105 54be 7414 30be 420c 5c3e c797 a3bd
00000030: bc26 c03d 3a50 50bd a1f6 bf3c b915 60bd
00000040: 8c63 af3d c3d8 5abd e4b9 623d c80e 3a3d
00000050: dd4d f63c 46b5 9f3d b542 733c 025c d63d
00000060: a408 81bc be8d 52be cb58 c73d b388 33bb
00000070: 9c88 9a3c c36d c3bd 1669 05be 023e bf3d
