DM_Homework_4/best_model.pth (torch, 12326 bytes, 6 tensors)

layers.0.weight f4 [64, 3]
000000 53 6c 65 be c8 10 c7 3e bf f4 89 be 05 b2 8d 3e
       -0.22404604 0.3887999 -0.2694454 0.2767488
000010 ba e5 b5 be 69 2c 10 bf ee 63 8d be fc a5 ce be
       -0.3552683 -0.56317765 -0.27615303 -0.4036101
000020 c0 d6 60 be b1 c4 25 3d c9 e0 e9 3d 92 5d 2e 3d
       -0.2195692 0.040470783 0.114198275 0.042569704
000030 ca be 01 3f 12 9d c5 bd 3f e6 c7 be 46 b3 23 3e
       0.50681746 -0.096490994 -0.3904285 0.15986356
000040 1b 9f 6d be ce 78 04 bf 6e 97 c1 3d 2c 45 2f be
       -0.23205225 -0.51746833 0.09452711 -0.1711623
000050 be f8 9f 3e 2f d7 8d be 7f be 05 bf ef f8 d8 be
       0.31244463 -0.27703235 -0.522438 -0.4237742
000060 14 82 4a be 2e ba 49 3d af 0f 37 3e 52 ec ff bd
       -0.19776183 0.04924982 0.17877077 -0.124962464
000070 10 fc 8a be cb b7 5a 3e 88 4f b8 3e 67 92 c3 3d
       -0.27145433 0.21359174 0.35998178 0.095494084
000080 e6 0d d3 3e fa cd b6 be c2 48 b8 3e 16 bf c5 be
       0.4122154 -0.35704023 0.3599301 -0.3862235
000090 a3 af 8f be 23 a3 f8 bd 03 f2 f5 be fe 25 e0 bb
       -0.28063688 -0.12140491 -0.48036203 -0.0068404665
0000a0 90 41 d7 bd 4f f1 95 be 22 9d 8b be 3d 3f 3a 3e
       -0.10510552 -0.29285666 -0.2726832 0.18188186
0000b0 d6 96 da be 24 41 06 bd 0e 4f e4 be 46 e8 1b be
       -0.42693204 -0.032776967 -0.44591564 -0.15225324
0000c0 b3 b4 df be 65 bf 4e 3e 0e ad 1b 3e ed c9 71 be
       -0.4369255 0.20190199 0.15202734 -0.23612185
0000d0 1f 2c ca 3d 66 76 99 bd 3c 4f 50 3e 3e f5 c0 3e
       0.09871697 -0.07493286 0.20342726 0.37687105
0000e0 d4 81 b7 be 1f 9e b2 3e 24 c5 09 be a5 11 55 3e
       -0.35841238 0.34886262 -0.1345411 0.20807512
0000f0 a8 7c 04 3f 26 8a 8b 3e b6 92 fd be 7d 53 9a be
       0.5175271 0.27253836 -0.49525994 -0.30141822
000100 96 b0 ac 3e 4a bc 5a 3e 79 0e ae be 47 e8 4d be
       0.33728474 0.21360889 -0.33995417 -0.20108138
000110 90 6a 06 bf 65 d6 d1 bd 53 f8 be bd f1 cd c5 3e
       -0.5250635 -0.10245971 -0.09324708 0.38633683
000120 f6 48 99 3e 46 7b 0a 3f 77 74 fc be 13 b9 5d bd
       0.29938477 0.5409435 -0.49307606 -0.05413158
000130 94 d4 43 be 37 9c 9c 3e 30 ab 0a 3f 72 03 01 3f
       -0.19124061 0.30587932 0.5416746 0.5039588
000140 4c 89 e3 be ee fd a3 3e 64 e7 b0 3e 3a ab df bd
       -0.44440687 0.3202967 0.34551537 -0.10921331
000150 4e e3 d8 bd 60 ce 5e be ed 13 7f be 5e f8 b5 be
       -0.1059023 -0.21758413 -0.24909945 -0.35541052
000160 74 de 0b 3f a8 98 b0 3e 38 ed 12 bf 68 a6 e8 3e
       0.5463631 0.34491467 -0.5739322 0.45439458
000170 90 32 b6 bc fd 08 a2 3e 8e c0 71 3d 14 a3 9a bd
       -0.022240907 0.31647483 0.059021525 -0.07550636
000180 b6 4f 06 3f 54 3c 98 3e 03 b9 bc bc 2a cf 02 3f
       0.5246538 0.29733527 -0.02303744 0.5109736
000190 c2 1a 6d 3d 60 29 a6 3e a8 66 d5 be 99 34 a1 be
       0.057886846 0.32453442 -0.41679883 -0.3148544
0001a0 77 ff e0 3e bc 01 07 bf e9 aa 89 be 84 0b e4 be
       0.43944904 -0.5273702 -0.26888207 -0.44540036
0001b0 7c 5a 00 bf 4e d0 c7 be be b3 90 be 6e b1 2c be
       -0.5013807 -0.3902611 -0.28262132 -0.16864559
0001c0 e8 5a c7 be 0a aa 7e bc 19 e1 06 bf 6b 57 f8 be
       -0.38936543 -0.01554347 -0.5268722 -0.48504195
0001d0 f5 87 ad 3e a0 2b 0f bf 3c 01 fe 3b d0 a4 b9 3e
       0.3389279 -0.5592594 0.007751612 0.36258554
0001e0 ea d4 00 be fc f4 e8 3e 53 60 99 3e 5a d9 aa bd
       -0.1258122 0.45499408 0.29956302 -0.08342238
0001f0 80 9d 8c 3e 84 ca 05 3f 18 7a ad be 8e f2 6d 3d
       0.27463913 0.5226214 -0.33882213 0.058092646
000200 73 66 f6 be dc 2f 27 be d1 36 fe 3d a0 0a 9e 3d
       -0.48125038 -0.1632685 0.12412799 0.0771687
000210 68 cb 30 bb 59 49 48 be cd 55 fa 3e 99 ce 50 3e
       -0.0026976708 -0.1955923 0.48893586 0.20391311
000220 27 03 09 bf 60 fc ac 39 be 3a 03 3d 3e 8e 0c 3f
       -0.53520435 0.0003299443 0.032038443 0.54904544
000230 ae 03 7b 3e fa 88 c3 3e 87 ca 2b be 1d a7 63 3d
       0.24513122 0.38190442 -0.16776477 0.055579294
000240 90 fd 0c bf 22 27 a1 bd fc 1f 20 3e 91 f0 0a 3f
       -0.55074406 -0.07868792 0.15637201 0.54273325
000250 fc e4 01 bf 2a 00 eb bd 8e 63 cb 3b 21 4d 5a 3e
       -0.5074003 -0.11474641 0.006206936 0.21318485
000260 4a 73 b4 3e 2e e6 a2 be 07 98 26 be 5a 18 b7 3e
       0.3524421 -0.31816238 -0.16268931 0.35760766
000270 c8 65 44 be 1c 8a 13 be 78 bd 69 be 53 2b 02 be
       -0.19179451 -0.14408153 -0.22826183 -0.1271184
000280 6e 19 10 bf 1d 89 cc be 70 9b e9 be 4c 54 f6 be
       -0.562888 -0.3994836 -0.45626402 -0.48111188
000290 40 c3 95 3e 04 b9 d7 be 30 02 c8 3e 03 52 d8 3d
       0.29250526 -0.42133343 0.3906417 0.105625175
0002a0 a2 67 a1 3e 04 24 93 3c 35 e2 cc 3e 6c 49 db bd
       0.31524378 0.01796151 0.40016332 -0.107073635
0002b0 28 e0 0e bf bc 8d 02 bf dd fc 0c bd 2b af 4d be
       -0.55810785 -0.5099752 -0.034420837 -0.20086353
0002c0 6c 72 04 3f 42 f8 db be c8 48 d5 3e 73 bb 37 bd
       0.51737094 -0.42962843 0.4165709 -0.0448565
0002d0 45 fb 41 bd 55 a1 ac be 89 f3 bc 3e 1c d6 f4 be
       -0.04735877 -0.33716837 0.36904553 -0.47819602
0002e0 88 b1 a1 3e 13 5b 0e bf fc bd 31 3e 3e 4d 70 3d
       0.31580758 -0.5560772 0.1735763 0.058667414
0002f0 ee 50 c7 3e 50 b2 c8 be 11 13 f2 3d 1c a0 30 be
       0.38928932 -0.39198542 0.11820043 -0.17248577

layers.0.bias f4 [64]
000000 4d 8c 08 be f8 47 86 be ff 86 bf 3e 9b d1 db be
       -0.1333477 -0.26226783 0.3740768 -0.42933354
000010 c6 d5 db 3e 85 8c 59 be cd ac f7 3e c8 17 82 be
       0.42936534 -0.2124501 0.48374024 -0.2540877
000020 cc 61 88 3e 6b da d7 3e 23 2d 07 3f 24 33 4d be
       0.26637113 0.42158827 0.5280325 -0.2003904
000030 a0 ff 7b ba e5 d6 8a be 5f b1 96 3e 00 78 80 be
       -0.0009612981 -0.27117077 0.29432198 -0.25091553
000040 cd 63 fe be 87 8a f6 3d c0 c0 0b 3f 81 7e 21 be
       -0.49685517 0.12038141 0.5459099 -0.15770914
000050 1d 33 07 3f 74 1d 83 be 75 ee 08 be 6e 25 ad be
       0.5281237 -0.25608408 -0.13372214 -0.3381762
000060 ef 17 c8 be 83 17 00 bf 34 f0 37 bc f8 e5 8c be
       -0.3908076 -0.50035876 -0.0112267025 -0.27519202
000070 de 9c 09 bf a7 58 84 be 36 8e 98 3e cd 69 0b 3e
       -0.53754985 -0.25848886 0.29795998 0.13614579
000080 7e 4f f8 be 05 ab b7 3e f4 67 7c 3e 1a 69 ea 3e
       -0.48498148 0.35872665 0.2464903 0.4578331
000090 af cb df 3e d0 b8 a4 3d 4b 6f 5c 3e 0e 5d da bb
       0.43710086 0.08043063 0.2152683 -0.006663925
0000a0 94 04 ea 3d 21 24 b4 be c9 bc c7 3e 32 fb c6 3e
       0.114266545 -0.35183814 0.3901122 0.38863522
0000b0 4c 70 08 3f d7 c4 31 3c 4e 72 9c bd ff 88 e7 bd
       0.5329635 0.010850153 -0.076389894 -0.11305427
0000c0 88 b1 58 be de 67 f8 be 44 37 81 be 1f 9c ad 3e
       -0.21161473 -0.48516744 -0.25237477 0.33908173
0000d0 db 2b f8 3d c0 99 37 be ee 9e c8 3e 74 b6 b9 3e
       0.1211774 -0.17929745 0.39183754 0.36272013
0000e0 38 12 4b be 5c 00 58 be d2 44 ce 3e 30 59 c9 be
       -0.19831169 -0.21093887 0.4028688 -0.39325857
0000f0 a9 3d fb be dc 23 82 3d de 3c fa bd 32 f4 bb be
       -0.4907048 0.06354496 -0.12218641 -0.36709744

layers.2.weight f4 [32, 64]
000000 cd 1e 32 bd ab 1d a9 bd 3b 44 97 3d ce 99 69 bd
       -0.043486405 -0.08257612 0.07386061 -0.057031445
000010 d0 d9 ab 3d 13 95 57 bd 3d c9 0f bc 9d cf e9 3d
       0.08391154 -0.052632403 -0.008776006 0.11416552
000020 c8 48 83 3b 94 08 76 3d 8d ec 93 3d 2c 14 d3 3c
       0.004006479 0.060066774 0.07222853 0.025766455
000030 19 b1 78 3d 99 15 84 3d 00 30 62 b7 21 1f de 3d
       0.06071577 0.06449432 -1.3481826e-05 0.10845781
000040 7b d5 8f 3d ec 68 c6 bb 8a 93 c1 bc 70 93 2b bd
       0.0702314 -0.006054988 -0.023629922 -0.041888654
000050 a4 63 b6 3b ea 0f e1 bd 05 8d ca 3d 74 d9 00 3d
       0.0055660773 -0.109893635 0.098901786 0.03145738
000060 9e bf 8b bd a2 ea ff bb 75 36 ab bd ee d4 bd 3c
       -0.068236575 -0.007809953 -0.08359996 0.023172822
000070 f8 13 a8 bc a8 5b d9 bd 89 63 a7 3d 38 d6 b8 3a
       -0.020517334 -0.10613185 0.08173282 0.0014101928
000080 38 81 c4 bd a0 ec 64 3c 58 ea bb bb 88 c5 0e 3c
       -0.09594959 0.013972431 -0.005734723 0.008714087
000090 1c 19 0b 3c 14 da b5 bd 8f e6 ef 3c 1d 11 b4 3d
       0.008489873 -0.08879486 0.029284744 0.087923266
0000a0 6c aa b2 bb e8 fe 57 3b a8 01 db 3d a1 f2 dd 3c
       -0.005452445 0.0032958332 0.10693675 0.027093234
0000b0 b2 6a 7b 3d 47 48 6a bc 3e 6a f8 bb 48 ca da bd
       0.06138105 -0.014299459 -0.0075810244 -0.10683113
0000c0 c6 15 e0 bd 4f 68 25 3d 24 5b 58 bd 42 fc f2 3b
       -0.10941653 0.04038268 -0.052821293 0.0074153254
0000d0 20 a8 91 39 34 40 f2 bb e8 94 c2 3c f5 91 9a 3d
       0.00027781818 -0.0073929075 0.023752645 0.0754737
0000e0 59 1d ea bd ce 7d 79 bd 4b b2 a2 3d a8 f6 22 bd
       -0.11431379 -0.060910992 0.07944163 -0.03978601
0000f0 c5 22 3e bd 38 47 d9 bd db 1c d0 3d c1 e3 94 3d
       -0.046419878 -0.10609287 0.10161754 0.07270003
000100 c3 84 80 bd 3c a9 1e bd 6a 6c f1 3c c3 6d df bd
       -0.06275322 -0.038735613 0.029470641 -0.10909607
000110 82 a4 85 bc 8e d3 dd bc 15 59 9f 3d 94 82 24 bd
       -0.016313795 -0.027078416 0.07780663 -0.04016359
000120 2e 72 60 bd 47 48 4e bd b4 63 05 be 8f 99 b2 3d
       -0.05479639 -0.050361898 -0.13026315 0.08720695
000130 1d 21 b8 3d 6a 3d 90 3b 6a 36 67 3d a2 d8 e5 3d
       0.08990691 0.0044018524 0.056448378 0.1122296
000140 d6 b6 57 3d fd 0c ef bd 5c 91 9b 3c f0 42 be bd
       0.0526646 -0.11672399 0.018990211 -0.09290111
000150 e1 fc b0 bd 92 54 72 bd e5 c1 64 bd bd 3f 1e 3d
       -0.08641983 -0.059162684 -0.055848975 0.038635004
000160 69 10 e8 3d bf f1 94 bd e3 8b ac 3d 22 8a 46 bd
       0.11331255 -0.07272672 0.08425119 -0.048471577
000170 53 83 f8 bb 7b d4 ba bd df fc c0 3d 25 32 9a bc
       -0.0075840144 -0.09122559 0.09423231 -0.018822739
000180 2a af 57 3d a3 fb 93 3c 1b ea 90 bd 9c 1b 29 3d
       0.052657284 0.018064326 -0.07075902 0.041286096
000190 42 7c cb bd 98 ff 72 bd fd 3d e7 3d ce 0b e0 3d
       -0.0993581 -0.059325784 0.1129112 0.109397516
0001a0 82 32 7b bd 1a 16 3b 3d 03 e4 a4 3d 20 13 d4 b9
       -0.061327465 0.045675375 0.08051302 -0.0004045004
0001b0 fe f3 b7 3c 8a 2e ac bd 06 2f d8 bc f8 db 1f bd
       0.022455212 -0.08407314 -0.02638961 -0.039028138
0001c0 a8 1f 25 3c 29 c6 46 3c 03 bf d2 3d 5e 77 cd 3b
       0.010078348 0.012132206 0.10290339 0.006270333
0001d0 60 35 34 3d 7c df 6d 3b aa 5c 60 3d 51 34 dc bd
       0.043996215 0.0036296537 0.05477587 -0.10752166
0001e0 46 ee 49 bd 2a a9 82 bd 27 7a 32 bc 67 02 f7 bd
       -0.0492995 -0.06379922 -0.010893381 -0.12061005
0001f0 26 97 d7 bc b5 2a e4 3d 06 6c 74 bd 3a 69 24 3d
       -0.02631719 0.11140958 -0.05967333 0.040139414
000200 5e 50 ab 3d bb 30 39 3d 5c c8 83 3d 48 12 84 bc
       0.08364938 0.04521249 0.064347 -0.016121998
000210 3f 5b cc 3d 31 c4 c7 bd 58 19 83 bc 27 a6 ce bd
       0.09978341 -0.097542174 -0.016003296 -0.10090285
000220 62 3c a2 3d 8f d3 84 3d 33 90 83 3d 78 e4 4c bd
       0.07921673 0.06485664 0.06423988 -0.050022572
000230 cd be 35 bd 40 35 ff b9 b8 ef e3 bd b6 ed ea 3d
       -0.044371415 -0.00048677064 -0.11129707 0.11471121
000240 54 d6 e5 bd ae 94 a1 3c e6 7e b6 bc 6f 5d 5c 3c
       -0.112225205 0.019724216 -0.022277307 0.013450011
000250 0c 2a 50 bc e0 3a 1b bb 66 83 a0 3c c0 5d a9 bd
       -0.012705337 -0.0023686215 0.019593906 -0.082698345
000260 78 d7 c7 bd 0e 1c 31 3d 0e b0 96 bc b1 f7 38 bd
       -0.09757894 0.043239646 -0.018394496 -0.045158092
000270 3b 03 c2 bd b8 ca 82 bc 92 c3 8e bd ba 86 88 bd
       -0.094732724 -0.015965804 -0.06970896 -0.06666322
000280 57 a3 99 3d ca c2 5a bc 32 e3 41 bd 3c 12 f6 3c
       0.07501858 -0.013352105 -0.04733581 0.030037992
000290 e0 a2 88 b9 42 74 c1 3d f9 c8 e4 3d 96 05 46 3d
       -0.00026061293 0.094460025 0.11171145 0.04834517
0002a0 03 d7 b0 3c bc e9 e3 bd a0 75 c9 3d 5f c5 03 bc
       0.0215869 -0.11128566 0.09836888 -0.008042662
0002b0 af dc 5f bd b6 26 27 bc bf 4a 9f bd 90 c1 c8 bd
       -0.05465382 -0.0102021005 -0.077779286 -0.09802544
0002c0 58 7c b4 bd 87 6b e3 3d 54 b5 52 bd ad 16 33 3d
       -0.08812779 0.111044936 -0.05144246 0.043722797
0002d0 3c 33 6d bd 5f 83 89 bd 9c 57 28 bd 0b 34 0c 3d
       -0.05791019 -0.0671451 -0.041099176 0.03422932
0002e0 ba 90 88 bd 66 c4 c4 bd ce 3e 15 bd 63 ff e1 bc
       -0.066682294 -0.096077725 -0.03643685 -0.027587598
0002f0 73 1a 23 bd 03 3a d4 3d 90 c5 68 bd 9b 37 ce 3d
       -0.039820146 0.10362627 -0.056829035 0.100692
000300 64 cd 8a bd 2f 47 22 3d ef c3 48 bd 23 78 5a bd
       -0.067774564 0.039618667 -0.04901498 -0.053337228
000310 22 4a 74 bd ec 0a 98 3c 7c c2 6e 3c e6 56 55 3d
       -0.05964101 0.018559895 0.014572736 0.052084826
000320 ec 0a f6 3c b7 f2 03 3c 1b a4 93 3d 2e 05 a3 3d
       0.030034505 0.008053473 0.07209035 0.07959972
000330 37 65 33 3d a9 cd ee 3c 90 00 73 bd 6d 58 e5 3d
       0.043797698 0.0291508 -0.05932671 0.111985065
000340 80 b7 aa 3d f8 8f fe ba 3b 74 7d bd 01 24 3c bd
       0.08335781 -0.0019421568 -0.061878424 -0.045932774
000350 82 84 d4 3d 7c 6a 3f 3d 37 1d e1 3d 98 ae ff bc
       0.10376836 0.04673241 0.109919004 -0.031211182
000360 43 bc 07 be 43 90 3f bd 73 3f 46 3c e5 5b f7 3c
       -0.1325541 -0.046768438 0.012100088 0.030195186
000370 78 55 89 3b 17 e1 a9 3c 0e 55 cb bd 40 a9 69 bd
       0.004191097 0.020737214 -0.09928332 -0.057046175
000380 7d 69 5d 3d 22 c8 1f bd fd 6e c2 3d 1d fd 41 3d
       0.05405568 -0.03900922 0.094938256 0.04736053
000390 36 e7 70 bd bf ef 5e bd 6d cd ab bd ab d5 a4 3d
       -0.05881425 -0.05442786 -0.08388791 0.080485664
0003a0 69 2e b4 bd 77 be 95 bd 73 31 8f 3d 9e 47 db bd
       -0.087979145 -0.07311719 0.069918536 -0.10707019
0003b0 e0 90 d8 ba 9a 56 03 be f6 79 8f bb dd e3 21 bd
       -0.0016522668 -0.12826005 -0.0043785525 -0.039523948
0003c0 80 ba 61 3b a2 2f 10 bd 74 0d da 3b 21 a7 80 3d
       0.0034443438 -0.035201676 0.006654436 0.06281877
0003d0 91 31 44 bd b8 ba 91 bd c9 93 c5 3d ca 51 78 3d
       -0.047898833 -0.07115692 0.096473284 0.060624875
0003e0 fe da f8 bb 9c 6a e4 bd 9a 5a 53 bd 56 4a 81 3d
       -0.0075944653 -0.111531466 -0.051600076 0.063130066
0003f0 bd c2 b6 3d 9b dc 6a bc 30 20 ca bc a7 eb 53 3d
       0.08923862 -0.014334823 -0.024673551 0.051738407

layers.2.bias f4 [32]
000000 08 56 5d 3d f5 ec c7 bd 3a c2 ce bd bc 1e d9 3d
       0.054037124 -0.09761993 -0.100956395 0.10601565
000010 f1 d9 75 bd 85 e1 da 3d 55 52 df bd b8 93 52 bc
       -0.0600223 0.10687546 -0.109043755 -0.012852602
000020 74 e7 3f 3d 45 06 77 3d 9e 83 e2 bc 2f 7d b6 3d
       0.04685159 0.060308713 -0.02765065 0.089105956
000030 fd bd e7 3d 8a cf 80 bc 2d 7b c3 3c fd 6a a2 bd
       0.11315534 -0.015723962 0.023862446 -0.07930563
000040 9a e3 16 3d 41 75 e8 3d 85 6b c8 bd 59 f4 e3 bd
       0.03683815 0.113504894 -0.09786133 -0.1113059
000050 56 d5 1c bd 49 8a 0f bd 67 c6 53 3c ba 32 fb bd
       -0.03828939 -0.03504399 0.012925721 -0.12265535
000060 84 ef 90 3b 46 4e 4b 3d 64 47 c4 3b 9a 7e 84 bd
       0.0044230837 0.049635194 0.0059899557 -0.0646946
000070 5a b8 a2 bc 73 91 6e bd 47 b9 47 3d db e1 65 3c
       -0.019863296 -0.05824418 0.04876068 0.014030899

layers.4.weight f4 [2, 32]
000000 60 8f 36 3c eb 66 12 be a6 3a 07 be 25 8b 0f be
       0.011142582 -0.14297073 -0.13205966 -0.14017923
000010 f5 48 db 3d d0 09 10 3e af c3 13 bd 76 8f b2 bd
       0.10707275 0.14066243 -0.03607529 -0.08718769
000020 34 84 2c be b6 d2 c7 3d 9c b2 eb 3d 34 5f 9a bd
       -0.16847306 0.09756987 0.115086764 -0.0753769
000030 ac 00 ce bd 80 64 06 3e a4 ea 04 3e 21 66 0e be
       -0.10058722 0.13124275 0.12980133 -0.13906147
000040 1e 1d 2e bd e5 13 c9 3d e6 5a bd 3d 9f f2 fe bd
       -0.042508237 0.09818248 0.09245853 -0.1244862
000050 0a 32 2c bc ac 17 14 bd 9e 6d 0e be 2a f9 02 3d
       -0.010509977 -0.036155388 -0.13909003 0.031975903
000060 d6 d9 12 3e 31 c7 17 be 98 a4 11 be f6 2f 28 3e
       0.1434091 -0.14822079 -0.14222944 0.16424546
000070 b6 36 05 bd 36 43 81 bb 64 6e 1f bc 15 ac 8d 3d
       -0.03252288 -0.0039447797 -0.009730909 0.06917588
000080 e4 ac 7e bb 23 73 1d be e3 cd fa 3d 38 f9 fa 3d
       -0.0038860375 -0.15375952 0.12246301 0.12254566
000090 b5 ad cb bd 88 44 c3 3d 62 6b b8 bd 25 84 47 3c
       -0.09945241 0.09534556 -0.09004857 0.012177502
0000a0 e3 94 90 3d 97 69 38 bd dc 38 b6 bd 94 fe 85 bd
       0.07059648 -0.045022573 -0.08897564 -0.065426975
0000b0 38 ca 7b 3d c0 6e 2f 3e 0a f3 a7 bd 8a c8 26 bd
       0.061472148 0.17132092 -0.08200653 -0.040718593
0000c0 32 20 18 be ff ba aa 3d 47 af 20 be 5b a8 bd 3d
       -0.14856032 0.08336448 -0.15691863 0.09260627
0000d0 a4 ed c9 3d 2d 84 c4 3d 66 b9 ba bd 97 98 b5 bd
       0.098597795 0.09595523 -0.09117393 -0.08866995
0000e0 88 6f 02 bd f0 6e 1a bd 7c 45 bc 3d b2 e6 0e be
       -0.031844646 -0.037703454 0.091929406 -0.13955191
0000f0 90 f0 14 3e c4 16 0b be 08 f0 06 bd d7 fe cb 3d
       0.14544892 -0.13582903 -0.032943755 0.09960716

layers.4.bias f4 [2]
000000 02 44 ae 3d 52 4c d3 3c
       0.08509065 0.025793228
